model.pth (torch, 105588 bytes, 6 tensors)

conv1.bias f4 [128]
-0.016929924 0.047948595 -0.015109075 0.0 -0.03031233 -0.02831726 -0.055105284 -0.013019702
-0.025231693 -0.01500406 -0.054913282 -0.004781742 -0.035584852 -0.06434684 0.0 -0.043891694
-0.0046922024 -0.065890014 -0.041703526 0.0 -0.0022513703 -0.015779562 -0.021750834 -0.023194334
0.029020868 -0.059105698 0.0 0.06046438 -0.0070135347 -0.051880617 -0.036350634 -0.045350295
-0.023364514 -0.022751998 -0.06199849 -0.06395159 -0.012889629 -0.05812162 0.018388173 0.0
0.046787113 -0.029945297 -0.021040441 -0.03236412 -0.029727213 -0.045996018 -0.033231374 -0.015071907
-0.04355486 -0.05430723 -0.012597941 -0.044680938 0.0 0.01347502 -0.033558555 -0.03971901
-0.035671677 -0.0046834545 -0.02899454 -0.042421542 0.0 0.06875041 -0.052183468 -0.053571492
-0.010871647 -0.030349076 0.015413277 -0.073819816 -0.051577516 -0.049335405 -0.051083352 -0.056173332
0.0030453901 -0.03175577 -0.01991804 -0.02171012 -0.015944956 -0.040884063 0.0046998113 -0.021512577
0.0 -0.010664636 0.0 -0.00055977196 0.0 -0.056684762 0.0 -0.042315893
-0.04957547 -0.06626175 -0.06321932 -0.036647778 -0.029539896 -0.056407712 -0.03321365 -0.011904966
-0.004018232 -0.028408708 -0.019946557 -0.018054128 -0.05479113 -0.04662343 0.0 -0.017643306
0.0 -0.036501147 -0.07313035 0.012956729 -0.045843065 -0.05149965 -0.025270155 -0.015100322
-0.017370835 -0.03968608 0.0 -0.03458806 -0.048766334 0.0 -0.00050274696 -0.009225905
0.0 0.021413576 0.0035521279 0.0 -0.008880881 0.0 0.014533952 0.0
00000000: a0b0 8abc bf65 443d 0e8c 77bc 0000 0000
00000010: 9051 f8bc 99f9 e7bc 14b6 61bd 9750 55bc
00000020: b2b2 cebc 97d3 75bc c0ec 60bd 29b0 9cbb
00000030: 6cc1 11bd 47c8 83bd 0000 0000 c7c7 33bd
00000040: 0cc1 99bb 58f1 86bd 51d1 2abd 0000 0000
00000050: ba8b 13bb 2444 81bc ce2e b2bc 0b02 bebc
00000060: 2cbd ed3c d118 72bd 0000 0000 7fa9 773d
00000070: cbd1 e5bb c580 54bd 67e4 14bd 3bc1 39bd
00000080: f066 bfbc 6662 babc 21f2 7dbd 0df9 82bd
00000090: 062f 53bc f010 6ebd cba2 963c 0000 0000
000000a0: d8a3 3f3d d74f f5bc 015d acbc 3d90 04bd
000000b0: 7c86 f3bc 5266 3cbd 9f1d 08bd 29f0 76bc
000000c0: 9566 32bd 4271 5ebd 9867 4ebc 5c03 37bd
000000d0: 0000 0000 55c6 5c3c b274 09bd 67b0 22bd
000000e0: 771c 12bd aa77 99bb f585 edbc 36c2 2dbd
000000f0: 0000 0000 04cd 8c3d 55be 55bd c86d 5bbd
00000100: fe1e 32bc a09e f8bc f887 7c3c d82e 97bd
00000110: f242 53bd ec13 4abd c73c 51bd 0216 66bd
00000120: 2b95 473b 5712 02bd 282b a3bc 6cd9 b1bc
00000130: ff9e 82bc 0c76 27bd e000 9a3b 253b b0bc
00000140: 0000 0000 baba 2ebc 0000 0000 a9bd 12ba
00000150: 0000 0000 482e 68bd 0000 0000 6e53 2dbd
00000160: a60f 4bbd 3eb4 87bd 2179 81bd fb1b 16bd
00000170: a7fd f1bc c60b 67bd 090b 08bd 0c0d 43bc
00000180: 60ab 83bb 61b9 e8bc f666 a3bc 40e6 93bc
00000190: aa6c 60bd 36f8 3ebd 0000 0000 b288 90bc
000001a0: 0000 0000 3a82 15bd 5dc5 95bd 7648 543c
000001b0: f0c5 3bbd 4cf1 52bd 5b03 cfbc 5767 77bc
000001c0: 484d 8ebc df8d 22bd 0000 0000 36ac 0dbd
000001d0: 35bf 47bd 0000 0000 c7ca 03ba 4028 17bc
000001e0: 0000 0000 866b af3c d1ca 683b 0000 0000
000001f0: 1d81 11bc 0000 0000 d01f 6e3c 0000 0000

conv1.lin.weight f4 [128, 7]
0.04319823 0.021322303 -0.11870699 -0.17918997 -0.051399905 0.1413995 -0.06592915 -0.040212054
-0.112706095 0.05189864 0.0021107323 0.07459676 0.036335133 -0.02000571 0.099575855 -0.006097042
-0.15059385 0.09116344 -0.18103026 0.05395474 -0.015710883 -0.056057632 0.0087766135 -0.025338944
-0.1005537 -0.09612976 0.025129592 -0.07215437 -0.03015173 -0.18157384 -0.012649304 -0.11142338
0.12147639 0.17476666 -0.0302122 0.051911436 -0.047887076 -0.05582028 0.13628845 -0.13072428
-0.1596267 -0.08482151 -0.14316046 -0.23360139 0.085311316 0.0068966076 0.121429294 -0.07819855
-0.028762698 -0.046042547 -0.012528247 -0.0017058488 -0.111927114 -0.05791393 0.060245592 -0.055050336
0.08615129 -0.23329179 0.05319532 0.08496665 0.03569298 0.05409489 0.024066295 -0.054840464
-0.09419974 -0.047639664 -0.015655678 0.04075736 -0.11762211 0.085388996 -0.20558716 -0.100792736
0.05375926 0.0128668705 0.091503605 0.12348246 0.042107936 -0.11218508 0.005888783 -0.007595537
-0.0003617478 0.01221659 -0.044475436 0.00535836 -0.027782824 0.16641417 0.08832264 -0.0036125784
-0.19990662 0.05840492 0.06630689 -0.0026464812 0.042065438 -0.027836075 0.10121137 -0.06581332
0.015502647 0.0022492218 0.005055797 -0.079738766 -0.02025678 0.013668878 -0.010711836 -0.05771258
0.072130725 0.086231664 -0.06818042 -0.078484096 -0.13546745 -0.030598607 -0.08187153 0.0038474156
0.011938057 -0.07351564 0.041323543 0.08119951 0.0004108767 -0.0035631624 -0.082511425 -0.18725376
-0.083300374 0.044654865 0.018211287 0.032425117 -0.26523092 -0.002004031 0.014533809 -0.084417045
-0.008858197 -0.20062566 -0.013026528 0.0829876 0.098715104 0.019224335 -0.014069146 -0.018489797
-0.03387694 -0.060187805 -0.098333426 0.084924996 -0.036219105 -0.08608706 -0.0020123916 -0.0033384552
0.019599488 0.092864 -0.034759946 -0.020764211 -0.021723447 0.024512982 -0.07487029 -0.03871588
-0.0065826625 -0.033482775 -0.06570163 0.06539499 0.007915346 -0.014758108 0.19332476 -0.024531055
0.039385837 -0.18865068 0.087090164 -0.022956718 -0.1255504 0.07607022 0.09919557 0.059980735
-0.09912788 0.10338277 -0.24440713 0.10157521 -0.013454748 0.0097945025 0.06059068 -0.23384672
0.14161214 0.024863228 0.09705692 -0.024567064 0.11063343 -0.020695275 0.03618352 -0.1077975
0.008022837 -0.013866403 -0.017180635 -0.00568989 0.0011219764 -0.056094207 0.060384504 0.23969218
-0.016867708 0.0009845672 0.015861582 -0.00040858611 0.19746852 -0.09469468 -0.013330141 -0.014753381
-0.009846432 0.17530683 0.027404776 0.07851652 -0.19705313 0.09379075 0.09069521 0.087182455
-0.13838057 -0.011477469 0.07870099 0.1617173 0.16817729 -0.13761608 0.017022444 0.02473247
0.11886907 0.15050718 -0.103166685 0.06864903 0.08737639 0.090239465 -0.027877083 0.102070644
0.021264335 -0.023425274 0.052337147 0.0020432689 -0.04630409 -0.12861687 -0.01745688 0.16806218
-0.157612 0.073401734 -0.085514665 0.10292878 0.10833631 -0.018388811 0.1346171 0.115549974
-0.08261047 -0.10801168 0.14431785 -0.2194444 -0.024605634 0.05543949 -0.0019244337 0.14620467
-0.14946282 0.0939115 0.053317152 -0.041261133 0.06869803 -0.046896342 0.0672315 -0.09045555
00000000: a1f0 303d 1cac ae3c a61c f3bd 937d 37be
00000010: b588 52bd 08cb 103e dd05 87bd 65b5 24bd
00000020: 74d2 e6bd ab93 543d 3654 0a3b 30c6 983d
00000030: 26d4 143d 04e3 a3bc 6dee cb3d b2c9 c7bb
00000040: 4635 1abe e6b3 ba3d ff5f 39be a5ff 5c3d
00000050: 1cb4 80bc b09c 65bd c9cb 0f3c 9e93 cfbc
00000060: 19ef cdbd aedf c4bd 93dc cd3c acc5 93bd
00000070: c300 f7bc 7eee 39be 073f 4fbc f131 e4bd
00000080: 9dc8 f83d 08f6 323e 937f f7bc 16a1 543d
00000090: 3d25 44bd cea3 64bd 338f 0b3e 96dc 05be
000000a0: 2f75 23be e6b6 adbd a898 12be 3435 6fbe
000000b0: b3b7 ae3d f0fc e13b ecaf f83d 9026 a0bd
000000c0: c09f ebbc 1c97 3cbd 4743 4dbc ca96 dfba
000000d0: 0b3a e5bd 2837 6dbd 15c4 763d 767c 61bd
000000e0: 1670 b03d 0be4 6ebe 56e3 593d ff02 ae3d
000000f0: cd32 123d 9a92 5d3d ae26 c53c 65a0 60bd
00000100: cbeb c0bd cf21 43bd 5640 80bc 31f1 263d
00000110: dce3 f0bd 6de0 ae3d 7185 52be 6c6c cebd
00000120: ab32 5c3d 91cf 523c 3e66 bb3d 5fe4 fc3d
00000130: 5f79 2c3d 4bc1 e5bd b1f6 c03b fce3 f8bb
00000140: f8a8 bdb9 1828 483c e02b 36bd 2e95 af3b
00000150: ce98 e3bc 7a68 2a3e 80e2 b43d 02c1 6cbb
00000160: 52b4 4cbe ff39 6f3d e8cb 873d 9670 2dbb
00000170: cf4c 2c3d 7b08 e4bc e847 cf3d 22c9 86bd
00000180: d0fe 7d3c ae67 133b 19ab a53b 144e a3bd
00000190: 8cf1 a5bc 6ef3 5f3c b280 2fbc 0764 6cbd
000001a0: 46b9 933d 3a9a b03d 2da2 8bbd 45bc a0bd
000001b0: fbb7 0abe eea9 fabc 43ac a7bd ec24 7c3b
000001c0: d797 433c 5e8f 96bd e042 293d ee4b a63d
000001d0: f06a d739 f283 69bb c0fb a8bd 73bf 3fbe
000001e0: 6399 aabd 05e8 363d d62f 953c 33d0 043d
000001f0: 59cc 87be 1056 03bb 371f 6e3c d8e2 acbd
00000200: f921 11bc d070 4dbe 386d 55bc 67f5 a93d
00000210: 252b ca3d 5a7c 9d3c 4682 66bc ea77 97bc
00000220: 8cc2 0abd 7d87 76bd 0963 c9bd 28ed ad3d
00000230: 7c5a 14bd 6a4e b0bd 54e2 03bb fcc9 5abb
00000240: 1b8f a03c 7b2f be3d 7260 0ebd b519 aabc
00000250: 5ff5 b1bc 73cf c83c 9855 99bd 8b94 1ebd
00000260: 60b3 d7bb 3c25 09bd 948e 86bd cfed 853d
00000270: 5eaf 013c fecb 71bc edf6 453e 5af5 c8bc
00000280: 0b53 213d a52d 41be 545c b23d ba0f bcbc
00000290: 4990 00be b4ca 9b3d 0c27 cb3d 5cae 753d
000002a0: 8f03 cbbd 59ba d33d dd45 7abe aa06 d03d
000002b0: 4e71 5cbc 1f79 203c ef2d 783d 8475 6fbe
000002c0: c602 113e f8ad cb3c c7c5 c63d de40 c9bc
000002d0: c893 e23d 2389 a9bc 2c35 143d f0c4 dcbd
000002e0: 3872 033c e92f 63bc 67be 8cbc 4272 babb
000002f0: 480f 933a 0ac3 65bd be55 773d de71 753e
00000300: 262e 8abc 980c 813a 26f0 813c 8037 d6b9
00000310: 3035 4a3e 49ef c1bd aa66 5abc 2ab8 71bc
00000320: ee52 21bc a283 333e fb7f e03c 45cd a03d
00000330: 4cc8 49be 5d15 c03d 69be b93d b78c b23d
00000340: a3b3 0dbe fe0b 3cbc fc2d a13d 3899 253e
00000350: ab36 2c3e 3beb 0cbe a772 8b3c c09b ca3c
00000360: a171 f33d 8e1e 1a3e 0e49 d3bd dd97 8c3d
00000370: 65f2 b23d 78cf b83d 7b5e e4bc 6a0a d13d
00000380: 8b32 ae3c 5ce6 bfbc 7a5f 563d 5de8 053b
00000390: 5ca9 3dbd 24b4 03be bb01 8fbc 7e18 2c3e
000003a0: 0a65 21be a653 963d 5022 afbd 53cc d23d
000003b0: 6ddf dd3d 22a4 96bc 11d9 093e 77a5 ec3d
000003c0: ae2f a9bd 3a35 ddbd 0fc8 133e 08b6 60be
000003d0: c191 c9bc 8514 633d 483d fcba adb6 153e
000003e0: c80c 19be ac54 c03d 1663 5a3d 6f01 29bd
000003f0: 8eb1 8c3d 6116 40bd abb0 893d c240 b9bd

conv2.bias f4 [128]
-0.032170456 -0.028864553 -0.0124068335 -0.04187301 -0.041845102 -0.0399378 -0.022133041 -0.041868936
-0.054969996 -0.04186921 -0.04183386 0.0 -0.017567165 -0.03699038 -0.04134563 -0.041983526
-0.0418715 -0.040602803 0.0 -0.056043226 -0.049946558 -0.04202484 -0.017914264 -0.023420973
-0.039255537 -0.007181761 -0.041782502 -0.027810434 -0.00077959336 -0.029645974 -0.029035997 -0.0047986624
-0.035009537 0.0 0.0048096725 -0.025300441 -0.014946841 -0.025417335 -0.0202163 -0.0052468455
0.0 0.0 -0.03998625 -0.020312956 -0.021562614 -0.03492835 -0.038878463 -0.0056625763
-0.008708551 -0.035219543 -0.022435782 -0.051417165 -0.035206206 -0.030221248 -0.042980436 -0.0418641
-0.028577527 0.016995218 -0.036200725 -0.03793884 -0.030953823 0.0019356823 -0.010961113 -0.04182712
-0.020236867 -0.009050976 0.021953946 -0.04186701 -0.041860763 -0.0047541 -0.0147365425 -0.02266255
-0.013075301 -0.051565386 -0.013613261 -0.023495588 -0.042962816 -0.04103451 0.004843217 -0.023482773
-0.043270413 -0.0058867773 0.0 -0.004834975 -0.041860387 -0.030043563 -0.04187378 -0.04187168
-0.023919618 -0.013601519 -0.009162473 -0.018728208 0.0 -0.009762753 -0.041860774 -0.041834384
-0.020585392 -0.026580375 0.0007014952 -0.029334458 -0.011921691 -0.036496684 -0.019274086 0.022937331
-0.023132993 -0.04163794 0.0 -0.040759176 0.021510392 -0.017948244 -0.02419236 0.014280482
-0.024475805 -0.0509018 -0.04174115 0.030941417 -0.026991857 -0.041030608 -0.04064575 -0.03825635
0.0 -0.03559457 -0.04931926 -0.04187202 -0.031042228 -0.032869 -0.010800823 -0.04101138
00000000: 2bc5 03bd 5b75 ecbc 0846 4bbc 0983 2bbd
00000010: c565 2bbd d295 23bd 5a50 b5bc c37e 2bbd
00000020: 3828 61bd 0c7f 2bbd fb59 2bbd 0000 0000
00000030: 04e9 8fbc 3a83 17bd 095a 29bd ebf6 2bbd
00000040: 7381 2bbd 204f 26bd 0000 0000 958d 65bd
00000050: c394 4cbd 3d22 2cbd efc0 92bc 57dd bfbc
00000060: 6aca 20bd fa54 ebbb 2124 2bbd b5d2 e3bc
00000070: a05d 4cba 1ddc f2bc e6dc edbc 193e 9dbb
00000080: 2966 0fbd 0000 0000 759a 9d3b df42 cfbc
00000090: 98e3 74bc 0438 d0bc a79c a5bc bbed abbb
000000a0: 0000 0000 0000 0000 9fc8 23bd 5b67 a6bc
000000b0: 14a4 b0bc 0811 0fbd 063f 1fbd 228d b9bb
000000c0: 4fae 0ebc 5e42 10bd 3fcb b7bc ce9a 52bd
000000d0: 6234 10bd 8d92 f7bc 410c 30bd b179 2bbd
000000e0: 6b1b eabc 8e39 8b3c 3647 14bd c265 1bbd
000000f0: df92 fdbc b8b6 fd3a 3d96 33bc ea52 2bbd
00000100: c9c7 a5bc 8b4a 14bc c3d8 b33c be7c 2bbd
00000110: 3176 2bbd 48c8 9bbb 8a71 71bc d0a6 b9bc
00000120: ca39 56bc 3a36 53bd 280a 5fbc d279 c0bc
00000130: c7f9 2fbd cd13 28bd d9b3 9e3b f25e c0bc
00000140: 513c 31bd dee5 c0bb 0000 0000 b66e 9ebb
00000150: cc75 2bbd eb1d f6bc d783 2bbd a481 2bbd
00000160: 13f3 c3bc e8d8 5ebc 321e 16bc e66b 99bc
00000170: 0000 0000 f4f3 1fbc 3476 2bbd 885a 2bbd
00000180: b2a2 a8bc 16bf d9bc 8ce4 373a d14e f0bc
00000190: 3253 43bc 8c7d 15bd b0e4 9dbc 12e7 bb3c
000001a0: 6781 bdbc 8b8c 2abd 0000 0000 18f3 26bd
000001b0: 9036 b03c 3208 93bc 0e2f c6bc aff8 693c
000001c0: 7c81 c8bc 687e 50bd c5f8 2abd db78 fd3c
000001d0: 071e ddbc b60f 28bd 287c 26bd b1b2 1cbd
000001e0: 0000 0000 9dcb 11bd fe02 4abd ff81 2bbd
000001f0: 454c febc a5a1 06bd eff5 30bc 8cfb 27bd

conv2.lin.weight f4 [128, 128]
-0.1560919 -0.0046856524 0.11061957 0.015598818 -0.0027925116 0.110405825 0.11283176 -0.019264786
0.067763254 0.0011927616 0.021117803 0.027993105 -0.18315475 -0.13650067 -0.02032126 0.059214193
-0.0021329685 -0.028620604 0.020955373 0.0037600142 0.04054592 -0.004738611 0.089957945 -0.10198467
0.031209985 -0.019501597 0.0058230525 0.0072799483 -0.14895816 -0.07068599 0.0013432996 -0.111257575
-0.030738033 -0.01179904 -0.008360877 -0.16970548 -0.050637223 0.062119275 0.08637302 -0.020383047
0.041880876 0.038240597 0.06480068 0.002589821 0.039649386 -0.03638173 0.09354084 0.09498979
-0.15954702 0.03671662 -0.13395295 -0.006205607 0.0030622256 0.044025633 -0.020114211 -0.074733965
-0.034193903 -0.02012686 0.10561061 0.0060702506 0.0062499098 0.08110747 0.022824382 -0.16004267
0.019304909 -0.09037867 -0.10179864 0.10264602 -0.01664906 -0.13181107 0.00077179144 -0.028426599
0.016424956 -0.14056887 0.003931809 0.11567952 -0.12384408 -0.028934106 -0.028130533 -0.07332089
-0.0020357927 -0.03899123 -0.025663596 0.10911607 0.008835095 0.017167564 -0.031565074 0.08567191
-0.037085988 -0.020443043 -0.09013361 0.040050343 -0.11466659 0.035499904 0.056225345 -0.15471154
-0.079205744 0.044499286 -0.031146089 0.13540651 0.0760192 -0.021144127 0.017422829 0.09497538
0.0039989767 0.049365696 0.042275738 0.009151366 -0.14968923 -0.17434637 0.07259167 -0.08740488
-0.08880624 0.053635128 -0.018003803 -0.13509205 -0.08690943 0.051375285 0.06698361 0.005614986
0.026224256 0.031757653 -0.0050741406 0.0019399937 -0.0143382475 0.01961144 -0.14640768 -0.019591631
-0.033622757 0.016274186 -0.13206765 0.017834367 0.02659094 -0.020638332 -0.010986693 0.005224636
-0.012048601 0.019156542 -0.08522367 -0.009795186 -0.16020378 0.0075454228 -0.011154215 0.008018249
0.0040768418 0.057935487 -0.0444997 0.020070495 -0.0034140048 -0.020484298 -0.029842297 -0.10603631
-0.16839752 0.046863 0.020065427 -0.104249224 0.04901841 -0.043428853 -0.03070381 0.101401985
-0.02361079 -0.08600705 -0.00019171997 0.036009982 0.04032582 0.008560181 0.10430776 -0.004289949
0.0562601 -0.11519808 -0.09624778 -0.12018965 -0.11106457 -0.17278272 0.03837388 -0.031238148
-0.04905172 0.12751116 -0.13606758 -0.06880064 0.044425216 0.0629178 -0.03386253 0.07057767
-0.018427439 0.006590006 0.097082205 0.08840489 0.013201945 0.04702823 0.08891253 -0.16598587
-0.0110434815 -0.051256325 -0.13895926 -0.021740155 -0.023069743 -0.03881132 0.0122397505 0.063318044
0.037351515 -0.1348939 -0.0028447844 -0.12075438 0.10802017 0.14454247 0.020333093 -0.056107268
-0.017111814 0.013578651 0.04002565 -0.06000142 -0.010162531 -0.042022325 -0.023006886 -0.0043436927
-0.07541064 -0.022775266 -0.07432687 -0.026069552 0.10368789 0.091222264 0.07392238 0.052376166
-0.17245439 -0.072951116 0.046143167 -0.14853439 -0.014311503 -0.06490043 -0.0055758865 -0.09114025
-0.044810936 0.019685823 0.12108016 0.02601276 -0.050345924 0.07406731 -0.060267232 0.0135232285
-0.078282654 -0.11319874 -0.016257435 -0.12958987 -0.1244247 -0.0029118955 0.018061876 0.02037338
-0.0030609681 0.11992581 0.007928979 -0.00059100287 -0.018266436 0.002005166 -0.040510766 0.00035781972
00000000: 8ed6 1fbe 1a8a 99bb 838c e23d 2f92 7f3c
00000010: 9202 37bb 731c e23d 5614 e73d 2fd1 9dbc
00000020: 76c7 8a3d 7056 9c3a 3eff ac3c cc51 e53c
00000030: eb8c 3bbe d5c6 0bbe c578 a6bc 958a 723d
00000040: 46c9 0bbb c275 eabc 9aaa ab3c 926a 763b
00000050: 7b13 263d 5a46 9bbb df3b b83d 57dd d0bd
00000060: 15ac ff3c d0c1 9fbc 4ecf be3b a28c ee3b
00000070: 7d88 18be d1c3 90bd a811 b03a 03db e3bd
00000080: 54ce fbbc c350 41bc 0ffc 08bc 46c7 2dbe
00000090: fa68 4fbd c870 7e3d 57e4 b03d 59fa a6bc
000000a0: 488b 2b3d 2ca2 1c3d 38b6 843d fcb9 293b
000000b0: 6567 223d 0205 15bd 5792 bf3d 028a c23d
000000c0: 4b60 23be 2b64 163d f62a 09be 6858 cbbb
000000d0: 9faf 483b 3954 343d 8fc6 a4bc 1f0e 99bd
000000e0: e80e 0cbd 16e1 a4bc 604a d83d f4e8 c63b
000000f0: 0bcc cc3b ac1b a63d 33fa ba3c 3ae2 23be
00000100: 5425 9e3c 7418 b9bd ce7b d0bd 1438 d23d
00000110: 9c63 88bc 7bf9 06be 0c52 4a3a e6de e8bc
00000120: a18d 863c 49f1 0fbe 68d6 803b 62e9 ec3d
00000130: f7a1 fdbd 3807 edbc 0172 e6bc 4329 96bd
00000140: ef6a 05bb 45b5 1fbd 763c d2bc 3f78 df3d
00000150: 13c1 103c fea2 8c3c 614a 01bd c174 af3d
00000160: 7ae7 17bd 2b78 a7bc f897 b8bd d40b 243d
00000170: 51d6 eabd 5968 113d 8c4c 663d b46c 1ebe
00000180: 9f36 a2bd e244 363d 1526 ffbc 01a8 0a3e
00000190: f4af 9b3d 7336 adbc 52ba 8e3c 7482 c23d
000001a0: d909 833b af33 4a3d 5329 2d3d 9cef 153c
000001b0: 2248 19be db87 32be f1aa 943d 5401 b3bd
000001c0: 0ce0 b5bd 82b0 5b3d b67c 93bc 9255 0abe
000001d0: 92fd b1bd e46e 523d b42e 893d ebfd b73b
000001e0: 40d4 d63c 5014 023d fa44 a6bb 6347 fe3a
000001f0: f8ea 6abc 2ca8 a03c e5eb 15be a17e a0bc
00000200: 04b8 09bd 7151 853c be3c 07be 6119 923c
00000210: 3ed5 d93c b811 a9bc 8801 34bc 6c33 ab3b
00000220: 7f67 45bc 2eee 9c3c bf89 aebd fd7b 20bc
00000230: 760c 24be 983f f73b 2bc0 36bc f95e 033c
00000240: 0797 853b c34d 6d3d 5145 36bd e16a a43c
00000250: 7fbd 5fbb b0ce a7bc d577 f4bc 9129 d9bd
00000260: 6670 2cbe 6bf3 3f3d 4060 a43c 9e80 d5bd
00000270: 87c7 483d 74e2 31bd 8e86 fbbc d8ab cf3d
00000280: 6a6b c1bc 7724 b0bd 7008 49b9 347f 133d
00000290: b02c 253d 0040 0c3c 4f9f d53d b392 8cbb
000002a0: fe70 663d f9ec ebbd 8e1d c5bd fe25 f6bd
000002b0: d275 e3bd f4ed 30be ee2d 1d3d 25e7 ffbc
000002c0: 75ea 48bd 4992 023e 4d55 0bbe 5ae7 8cbd
000002d0: 37f7 353d 0cdb 803d 70b3 0abd 078b 903d
000002e0: 24f5 96bc faf0 d73b 09d3 c63d 9f0d b53d
000002f0: f94c 583c aca0 403d c617 b63d 33f8 29be
00000300: b8ef 34bc 27f2 51bd 564b 0ebe 6918 b2bc
00000310: c2fc bcbc 9ef8 1ebd 3c89 483c e4ac 813d
00000320: e7fd 183d a021 0abe 906f 3abb 134e f7bd
00000330: ae39 dd3d f102 143e 9691 a63c bcd0 65bd
00000340: 132e 8cbc fd78 5e3c f0f1 233d 0dc4 75bd
00000350: bf80 26bc 9a1f 2cbd f078 bcbc 8955 8ebb
00000360: e570 9abd 3293 babc b038 98bd d08f d5bc
00000370: 515a d43d bdd2 ba3d 9e64 973d 6488 563d
00000380: e297 30be 6567 95bd 9e00 3d3d 6619 18be
00000390: cb7a 6abc 84ea 84bd edb5 b6bb bda7 babd
000003a0: ac8b 37bd 2a44 a13c e0f8 f73d b618 d53c
000003b0: 8737 4ebd 9ab0 973d c6da 76bd 8890 5d3c
000003c0: a852 a0bd bed4 e7bd 502e 85bc 35b3 04be
000003d0: 61d2 febd 80d5 3ebb 80f6 933c 13e6 a63c
000003e0: 869a 48bb aa9b f53d 8ce8 013c 88ed 1aba
000003f0: 7ea3 95bc 1a69 033b 9eee 25bd c099 bb39

conv3.bias f4 [64]
-0.022885045 0.008061353 -0.026194077 -0.005086157 -0.031573985 -0.0057802377 0.018338546 0.025409535
0.02003653 0.018281808 -0.0018972725 0.0026334086 -0.03357158 -0.0008888341 0.04064153 0.0137156565
0.003976618 0.031320658 1.9025116e-05 0.016347773 0.03318533 0.03210356 -0.0075897444 -0.010452783
-0.00038937829 0.033478823 0.02830439 -0.0024361084 0.023262989 -0.03286927 0.021585397 -0.019878387
-0.02100775 0.013938758 -0.012859157 -0.02365045 0.017829817 -0.029787283 -0.016669242 -0.010756569
0.04300169 -0.05476957 -0.0060005784 -0.002369898 -0.028891789 -0.0016870454 0.029799933 -0.053906057
0.015152402 -0.028032359 -0.027123602 0.02073203 0.019974314 0.01148335 -0.026874922 -0.011901203
-0.010517097 0.01162076 0.03653802 0.041511275 -0.025055518 0.050413404 -0.043388918 0.0027216012
00000000: 6b79 bbbc c413 043c f694 d6bc c7a9 a6bb
00000010: b953 01bd 2668 bdbb b83a 963c a827 d03c
00000020: a623 a43c bbc3 953c e7ad f8ba 4495 2c3b
00000030: 5a82 09bd a600 69ba bc77 263d a2b7 603c
00000040: 4a4e 823b 174a 003d 2098 9f37 c4eb 853c
00000050: 57ed 073d 067f 033d 64b3 f8bb 2642 2bbc
00000060: 7825 ccb9 1721 093d 9cde e73c 1ea7 1fbb
00000070: 0692 be3c eda1 06bd dcd3 b03c 00d8 a2bc
00000080: 7218 acbc 635f 643c 37af 52bc 97be c1bc
00000090: d60f 923c 7604 f4bc ef8d 88bc 523c 30bc
000000a0: 8a22 303d 0e56 60bd 80a0 c4bb 4a50 1bbb
000000b0: 79ae ecbc da1f ddba fd1e f43c 99cc 5cbd
000000c0: c841 783c 1ea4 e5bc 5132 debc 38d6 a93c
000000d0: 2ca1 a33c a924 3c3c cc28 dcbc 43fd 42bc
000000e0: e74f 2cbc 0065 3e3c e4a8 153d ba07 2a3d
000000f0: 3b41 cdbc 497e 4e3d 94b8 31bd e45c 323b

conv3.lin.weight f4 [64, 128]
-0.046321746 0.046527594 0.12159027 -0.1316616 -0.06142492 0.05883316 -0.14850897 0.029701047
0.1643684 0.051224638 0.12123079 0.008729374 0.065909415 -0.020264408 0.04410675 -0.0514595
0.0059768055 0.025535801 0.04832173 0.086954474 -0.10198724 -0.042756625 0.12096251 0.02889779
0.117368646 0.07903592 0.051352687 0.09953828 0.020113586 0.13243967 -0.08495698 0.0019718632
0.017189914 -0.007414125 0.011958096 -0.0033131079 -0.17444988 -0.00090103457 0.005814038 -0.041321564
0.07672863 -0.020352727 -0.054204985 -0.11585747 -0.09211275 -0.15927939 -0.07515405 0.016852695
-0.06250746 -0.025866317 -0.10561995 -0.059577625 -0.11045533 0.057078637 0.16776824 -0.054110415
0.10046459 -0.09631769 -0.18524294 0.016980596 -0.045383446 -0.0046099825 -0.08653079 0.120229155
-0.03379286 0.090464585 0.012825089 0.15496086 0.20323794 0.054963134 0.0994217 0.0149390595
-0.17043163 -0.13417026 0.070829764 -0.1268797 -0.002823644 0.08153485 -0.020543225 -0.019339966
0.03952584 -0.09482647 -0.009576401 -0.048434198 0.12534836 -0.0020880445 0.101937756 -0.12273629
-0.10453563 0.09775884 -0.057539612 0.00617975 -7.7563804e-05 -0.07062711 0.18833388 0.06582249
0.039144002 -0.083831936 0.1090114 0.06942126 -0.019962106 0.020542374 -0.0034414448 0.08219375
-0.15403993 0.09848576 0.020383589 -0.03884913 -0.075398475 0.00040069968 0.023848634 0.03614735
0.007655072 -0.09042103 -0.026059508 -0.04008433 -0.18848006 -0.07284003 0.071693175 0.016132217
-0.07557576 0.07602535 -0.1164951 0.17882383 -0.028367128 0.13039325 0.039013576 0.033981718
-0.06271745 0.12161184 -0.10191667 -0.17707096 -0.20331542 -0.10777334 -0.058937322 -0.11490464
0.110685 -0.046066016 0.1004264 0.051264126 0.0072324974 0.0042516813 -0.21427862 0.07844997
-0.1754651 -0.10226134 -0.0022201913 -0.1616418 -0.096559405 0.124259464 0.08877287 -0.14085874
0.10935966 0.018853411 -0.003735268 0.072891265 0.015429767 -0.041520778 -0.06836363 0.05562748
0.1281474 0.06386334 0.014880702 -0.08572345 -0.11667674 0.1705245 0.0033639143 0.06644969
-0.03671746 -0.0025178958 0.057733938 -0.14309496 0.12857099 0.12725136 0.0018818708 -0.01113681
-0.029048452 0.14206013 -0.15764406 -0.06910157 0.03490323 -0.008216897 -0.08879809 0.061371088
0.02397776 -0.07426213 -0.05566541 -0.12738256 -0.076963834 -0.0027775983 -0.009462965 0.11716794
-0.025674393 0.055064064 0.00023037894 -0.086656354 -0.067070395 -0.111183025 0.16642933 0.09657869
-0.0484547 -0.10531027 0.19229615 -0.08951356 0.010707844 0.08393377 0.020181838 0.09036065
-0.03971238 -0.01118531 -0.00297092 0.019842628 0.08364845 -0.12423078 0.075217925 -0.108967185
-0.19598764 -0.09800114 0.009212257 -0.00351551 -0.015008265 0.10826549 0.03746094 0.039819572
0.19072291 -0.033184264 -0.06444491 -0.098394334 0.06720555 -0.06760881 -0.016824815 0.0014892644
0.060200706 -0.12194082 -0.038384058 -0.14405252 -0.0861624 -0.0062005217 -0.08550402 0.086098254
0.0037841965 0.09726303 -0.08017338 0.038737044 0.12133652 0.02961793 0.11341689 -0.015834793
-0.0043094754 0.14099707 -0.061551336 -0.08543364 0.017964037 0.03670515 -0.028351361 0.0665798
00000000: dfbb 3dbd b893 3e3d 5204 f93d 4cd2 06be
00000010: b298 7bbd 0afb 703d bc12 18be 9c4f f33c
00000020: 3150 283e edd0 513d d947 f83d a605 0f3c
00000030: 84fb 863d 8b01 a6bc 48a9 343d 32c7 52bd
00000040: 14d9 c33b 7530 d13c 02ed 453d 3015 b23d
00000050: b0de d0bd 9221 2fbd 31bb f73d 0fbb ec3c
00000060: f95e f03d 96dd a13d 3257 523d bada cb3d
00000070: 3fc5 a43c 449e 073e edfd adbd 603a 013b
00000080: ddd1 8c3c 30f2 f2bb e4eb 433c ba20 59bb
00000090: fda2 32be 6833 6cba b083 be3b cd40 29bd
000000a0: e623 9d3d c3ba a6bc 0c06 5ebd ae46 edbd
000000b0: 9ca5 bcbd 231a 23be 5eea 99bd aa0e 8a3c
000000c0: e903 80bd 99e5 d3bc 464f d8bd ab07 74bd
000000d0: 6736 e2bd 4acb 693d 70cb 2b3e e2a2 5dbd
000000e0: 61c0 cd3d 3642 c5bd 53b0 3dbe e41a 8b3c
000000f0: fee3 39bd 560f 97bb 0e37 b1bd b43a f63d
00000100: 626a 0abd 7f45 b93d 5220 523c 0fae 1e3e
00000110: 9b1d 503e 0621 613d 9b9d cb3d f5c2 743c
00000120: a185 2ebe ee63 09be 320f 913d c1ec 01be
00000130: e30c 39bb befb a63d 444a a8bc d96e 9ebc
00000140: d9e5 213d 6134 c2bd 56e6 1cbc f062 46bd
00000150: 525b 003e 93d7 08bb bec4 d03d 2a5d fbbd
00000160: c716 d6bd c935 c83d a8ae 6bbd 807f ca3b
00000170: c0a9 a2b8 f2a4 90bd 99da 403e f1cd 863d
00000180: 7655 203d 14b0 abbd 5e41 df3d bc2c 8e3d
00000190: 9287 a3bc 7b48 a83c dd89 61bb 3255 a83d
000001a0: a5bc 1dbe e7b2 c93d 7cfb a63c 4420 1fbd
000001b0: 846a 9abd 0015 d239 365e c33c 3e0f 143d
000001c0: 66d7 fa3b a92e b9bd c07a d5bc 772f 24bd
000001d0: eb00 41be 272d 95bd dfd3 923d b627 843c
000001e0: 77c7 9abd 2eb3 9b3d fc94 eebd 981d 373e
000001f0: 2e62 e8bc cf85 053e b3cc 1f3d 6a30 0b3d
00000200: 0272 80bd a10f f93d b0b9 d0bd 1752 35be
00000210: eb31 50be 45b8 dcbd 4368 71bd 2053 ebbd
00000220: d1ae e23d b8af 3cbd 5bac cd3d 55fa 513d
00000230: 96fe ec3b b051 8b3b db6b 5bbe 61aa a03d
00000240: 20ad 33be 656e d1bd a180 11bb 6e85 25be
00000250: f0c0 c5bd bf7b fe3d 8dce b53d 463d 10be
00000260: f5f7 df3d 7872 9a3c 66cb 74bb 0448 953d
00000270: 22cd 7c3c b111 2abd 3b02 8cbd a4d9 633d
00000280: 1239 033e c8ca 823d 30ce 733c c78f afbd
00000290: 37f4 eebd f99d 2e3e 1e75 5c3b c616 883d
000002a0: 0c65 16bd 4803 25bb 6c7a 6c3d 7c87 12be
000002b0: 1da8 033e 2e4e 023e 1ba9 f63a 2b77 36bc
000002c0: 05f7 edbc 3678 113e 726d 21be 2085 8dbd
000002d0: b0f6 0e3d 2aa0 06bc c6db b5bd 4060 7b3d
000002e0: 026d c43c be16 98bd 6a01 64bd 9370 02be
000002f0: 379f 9dbd 5e08 36bb 8d0a 1bbc bff5 ef3d
00000300: 1b53 d2bc db8a 613d e091 7139 e378 b1bd
00000310: 345c 89bd edb3 e3bd 736c 2a3e 0ccb c53d
00000320: 6f78 46bd e9ac d7bd 48e9 443e e352 b7bd
00000330: f46f 2f3c 78e5 ab3d 6254 a53c 010f b93d
00000340: 73a9 22bd 9742 37bc c4b3 42bb 028d a23c
00000350: e14f ab3d b56c febd db0b 9a3d 302a dfbd
00000360: fcb0 48be d2b4 c8bd 02ef 163c 7864 66bb
00000370: 3ae5 75bc 4cba dd3d a570 193d d919 233d
00000380: de4c 433e 39ec 07bd b1fb 83bd f882 c9bd
00000390: 10a3 893d 7d76 8abd 32d4 89bc 6c33 c33a
000003a0: 0495 763d 1cbc f9bd 9a38 1dbd 8182 13be
000003b0: ea75 b0bd bf2d cbbb bb1c afbd 4854 b03d
000003c0: 4800 783b d731 c73d f131 a4bd bcaa 1e3d
000003d0: 487f f83d 4da1 f23c 1d47 e83d f8b7 81bc
000003e0: 8036 8dbb 8961 103e 411d 7cbd d5f7 aebd
000003f0: 5129 933c 2458 163d 1d41 e8bc fd5a 883d
